…
| No supervisado     | No                              | Agrupamiento, reducción            | Análisis exploratorio, clustering                |
| Auto-supervisado   | No (usa etiquetas derivadas)    | Aprendizaje de representaciones    | Preentrenamiento, NLP, visión artificial         |

---

## {.smaller}

#### Ejemplo: entrenamiento de una red neuronal de reconocimiento facial

Cuatro clases, 150 archivos de 128x128 en color, 

**Arquitectura de la red**

| Layer (type)                    | Output Shape           |       Param # |
|---------------------------------|------------------------|---------------|
| conv2d (Conv2D)                 | (None, 126, 126, 32)   |           896 |
| max_pooling2d (MaxPooling2D)    | (None, 63, 63, 32)     |             0 |
| conv2d_1 (Conv2D)               | (None, 61, 61, 64)     |        18,496 |
| max_pooling2d_1 (MaxPooling2D)  | (None, 30, 30, 64)     |             0 |
| flatten (Flatten)               | (None, 57600)          |             0 |
| dense (Dense)                   | (None, 128)            |     7,372,928 |
| dropout (Dropout)               | (None, 128)            |             0 |
| dense_1 (Dense)                 | (None, 4)              |           516 |

- Número de parámetros ajustables (Memoria): **[7,392,836]{.alert} (28.20 MB)**
- Tiempo de entrenamiento en un Apple Silicon M2: **11.63 secs**

[**Exactitud del modelo: 96.67%**]{.alert}

---

:::{.callout-important icon="true"}
## Degeneración del problema
El número de parámetros a ajustar es tan elevado que no es un problema sencillo de resolver. Necesitamos que el software de entrenamiento siga alguna estrategia que nos guie hacia una solución válida.
…
